…
{'models': [{'name': 'gemma-2-9b-it-adapted'}], 'adapter': {'do_adapt': True, 'do_peft': False, 'name': 'MyCustomAdapter', 'params': {'input_dim': 4096, 'num_components': 512}, 'gemma_2_params': {'input_dim': 4096, 'num_components': 512}, 'gemma_2_layers': [{'name': 'model.layers.41.self_attn.q_proj'}, {'name': 'model.layers.41.self_attn.k_proj'}, {'name': 'model.layers.41.self_attn.v_proj'}, {'name': 'model.layers.41.self_attn.o_proj'}], 'layers': None}, 'train': {'do_train': True, 'epochs': 100, 'batch_size': 1, 'lr': 0.0001, 'num_workers': 0}}
[Adpated model archi] Gemma2ForCausalLM(
  (model): Gemma2Model(
    (embed_tokens): Embedding(256000, 3584, padding_idx=0)
    (layers): ModuleList(
      (0-40): 41 x Gemma2DecoderLayer(
        (self_attn): Gemma2Attention(
          (q_proj): Linear(in_features=3584, out_features=4096, bias=False)
          (k_proj): Linear(in_features=3584, out_features=2048, bias=False)
          (v_proj): Linear(in_features=3584, out_features=2048, bias=False)
          (o_proj): Linear(in_features=4096, out_features=3584, bias=False)
          (rotary_emb): Gemma2RotaryEmbedding()
        )
        (mlp): Gemma2MLP(
          (gate_proj): Linear(in_features=3584, out_features=14336, bias=False)
          (up_proj): Linear(in_features=3584, out_features=14336, bias=False)
          (down_proj): Linear(in_features=14336, out_features=3584, bias=False)
          (act_fn): PytorchGELUTanh()
        )
        (input_layernorm): Gemma2RMSNorm((3584,), eps=1e-06)
        (pre_feedforward_layernorm): Gemma2RMSNorm((3584,), eps=1e-06)
        (post_feedforward_layernorm): Gemma2RMSNorm((3584,), eps=1e-06)
        (post_attention_layernorm): Gemma2RMSNorm((3584,), eps=1e-06)
      )
      (41): Gemma2DecoderLayer(
        (self_attn): Gemma2Attention(
          (q_proj): Sequential(
            (0): Linear(in_features=3584, out_features=4096, bias=False)
            (1): DCTAdapter(
              (adapter_down): Linear(in_features=4096, out_features=18, bias=False)
              (adapter_up): Linear(in_features=18, out_features=4096, bias=False)
            )
          )
          (k_proj): Sequential(
            (0): Linear(in_features=3584, out_features=2048, bias=False)
            (1): DCTAdapter(
              (adapter_down): Linear(in_features=2048, out_features=18, bias=False)
              (adapter_up): Linear(in_features=18, out_features=2048, bias=False)
            )
          )
          (v_proj): Sequential(
            (0): Linear(in_features=3584, out_features=2048, bias=False)
            (1): DCTAdapter(
              (adapter_down): Linear(in_features=2048, out_features=18, bias=False)
              (adapter_up): Linear(in_features=18, out_features=2048, bias=False)
            )
          )
          (o_proj): Sequential(
            (0): Linear(in_features=4096, out_features=3584, bias=False)
            (1): DCTAdapter(
              (adapter_down): Linear(in_features=3584, out_features=18, bias=False)
              (adapter_up): Linear(in_features=18, out_features=3584, bias=False)
            )
          )
          (rotary_emb): Gemma2RotaryEmbedding()
        )
        (mlp): Gemma2MLP(
          (gate_proj): Linear(in_features=3584, out_features=14336, bias=False)
          (up_proj): Linear(in_features=3584, out_features=14336, bias=False)
          (down_proj): Linear(in_features=14336, out_features=3584, bias=False)
          (act_fn): PytorchGELUTanh()
        )
        (input_layernorm): Gemma2RMSNorm((3584,), eps=1e-06)
        (pre_feedforward_layernorm): Gemma2RMSNorm((3584,), eps=1e-06)
        (post_feedforward_layernorm): Gemma2RMSNorm((3584,), eps=1e-06)
        (post_attention_layernorm): Gemma2RMSNorm((3584,), eps=1e-06)
      )
    )
    (norm): Gemma2RMSNorm((3584,), eps=1e-06)
  )
  (lm_head): Linear(in_features=3584, out_features=256000, bias=False)
)
Args, config
 config/config_alfred.yaml

Tasks: 0it [00:00, ?it/s]Resetting ThorEnv
[DEBUG] LLM output from : gemma-2-9b-it-adapted 
<bos>Create a high-level plan for completing a household task using the allowed actions. Follow the exact output format described in the examples. Only output the next steps of the plan. Always try to navigate to the object before interacting with it.
…
